Using TensorFlow backend.
2018-02-17 21:19:22.315112: I tensorflow/core/platform/cpu_feature_guard.cc:137] Your CPU supports instructions that this TensorFlow binary was not compiled to use: SSE4.1 SSE4.2 AVX AVX2 FMA
Slices loaded
(84, 100, 14520)
17.1230754852
-19.9069252014
nan check
0
(6615, 84, 100)
_________________________________________________________________
Layer (type)                 Output Shape              Param #   
=================================================================
input_1 (InputLayer)         (None, 128, 128, 1)       0         
_________________________________________________________________
conv2d_1 (Conv2D)            (None, 128, 128, 4)       40        
_________________________________________________________________
conv2d_2 (Conv2D)            (None, 128, 128, 4)       148       
_________________________________________________________________
max_pooling2d_1 (MaxPooling2 (None, 64, 64, 4)         0         
_________________________________________________________________
conv2d_3 (Conv2D)            (None, 64, 64, 4)         148       
_________________________________________________________________
conv2d_4 (Conv2D)            (None, 64, 64, 4)         148       
_________________________________________________________________
max_pooling2d_2 (MaxPooling2 (None, 32, 32, 4)         0         
_________________________________________________________________
conv2d_5 (Conv2D)            (None, 32, 32, 4)         148       
_________________________________________________________________
conv2d_6 (Conv2D)            (None, 32, 32, 4)         148       
_________________________________________________________________
up_sampling2d_1 (UpSampling2 (None, 64, 64, 4)         0         
_________________________________________________________________
conv2d_7 (Conv2D)            (None, 64, 64, 4)         148       
_________________________________________________________________
conv2d_8 (Conv2D)            (None, 64, 64, 4)         148       
_________________________________________________________________
up_sampling2d_2 (UpSampling2 (None, 128, 128, 4)       0         
_________________________________________________________________
conv2d_9 (Conv2D)            (None, 128, 128, 1)       37        
=================================================================
Total params: 1,113
Trainable params: 1,113
Non-trainable params: 0
_________________________________________________________________
Train on 4630 samples, validate on 1985 samples
Epoch 1/2

 128/4630 [..............................] - ETA: 35s - loss: 0.7043
 256/4630 [>.............................] - ETA: 30s - loss: 0.7031
…
